…
p1_p2_phi_12
ERROR	2017-10-17 15:26:52 +0800	master-replica-0		Using TensorFlow backend.
INFO	2017-10-17 15:29:07 +0800	master-replica-0		-----------  CNN model ------------------
INFO	2017-10-17 15:29:07 +0800	master-replica-0		_________________________________________________________________
INFO	2017-10-17 15:29:07 +0800	master-replica-0		Layer (type)                 Output Shape              Param #
INFO	2017-10-17 15:29:07 +0800	master-replica-0		=================================================================
INFO	2017-10-17 15:29:07 +0800	master-replica-0		conv2d_1 (Conv2D)            (None, 61, 61, 8)         384
INFO	2017-10-17 15:29:07 +0800	master-replica-0		_________________________________________________________________
INFO	2017-10-17 15:29:07 +0800	master-replica-0		activation_1 (Activation)    (None, 61, 61, 8)         0
INFO	2017-10-17 15:29:07 +0800	master-replica-0		_________________________________________________________________
INFO	2017-10-17 15:29:07 +0800	master-replica-0		max_pooling2d_1 (MaxPooling2 (None, 30, 30, 8)         0
INFO	2017-10-17 15:29:07 +0800	master-replica-0		_________________________________________________________________
INFO	2017-10-17 15:29:07 +0800	master-replica-0		conv2d_2 (Conv2D)            (None, 28, 28, 16)        1152
INFO	2017-10-17 15:29:07 +0800	master-replica-0		_________________________________________________________________
INFO	2017-10-17 15:29:07 +0800	master-replica-0		activation_2 (Activation)    (None, 28, 28, 16)        0
INFO	2017-10-17 15:29:07 +0800	master-replica-0		_________________________________________________________________
INFO	2017-10-17 15:29:07 +0800	master-replica-0		max_pooling2d_2 (MaxPooling2 (None, 14, 14, 16)        0
INFO	2017-10-17 15:29:07 +0800	master-replica-0		_________________________________________________________________
INFO	2017-10-17 15:29:07 +0800	master-replica-0		conv2d_3 (Conv2D)            (None, 12, 12, 32)        4608
INFO	2017-10-17 15:29:07 +0800	master-replica-0		_________________________________________________________________
INFO	2017-10-17 15:29:07 +0800	master-replica-0		activation_3 (Activation)    (None, 12, 12, 32)        0
INFO	2017-10-17 15:29:07 +0800	master-replica-0		_________________________________________________________________
INFO	2017-10-17 15:29:07 +0800	master-replica-0		max_pooling2d_3 (MaxPooling2 (None, 6, 6, 32)          0
INFO	2017-10-17 15:29:07 +0800	master-replica-0		_________________________________________________________________
INFO	2017-10-17 15:29:07 +0800	master-replica-0		conv2d_4 (Conv2D)            (None, 4, 4, 64)          18432
INFO	2017-10-17 15:29:07 +0800	master-replica-0		_________________________________________________________________
INFO	2017-10-17 15:29:07 +0800	master-replica-0		activation_4 (Activation)    (None, 4, 4, 64)          0
INFO	2017-10-17 15:29:07 +0800	master-replica-0		_________________________________________________________________
INFO	2017-10-17 15:29:07 +0800	master-replica-0		max_pooling2d_4 (MaxPooling2 (None, 2, 2, 64)          0
INFO	2017-10-17 15:29:07 +0800	master-replica-0		_________________________________________________________________
INFO	2017-10-17 15:29:07 +0800	master-replica-0		flatten_1 (Flatten)          (None, 256)               0
INFO	2017-10-17 15:29:07 +0800	master-replica-0		_________________________________________________________________
INFO	2017-10-17 15:29:07 +0800	master-replica-0		dense_1 (Dense)              (None, 128)               32896
INFO	2017-10-17 15:29:07 +0800	master-replica-0		_________________________________________________________________
INFO	2017-10-17 15:29:07 +0800	master-replica-0		dropout_1 (Dropout)          (None, 128)               0
INFO	2017-10-17 15:29:07 +0800	master-replica-0		=================================================================
INFO	2017-10-17 15:29:07 +0800	master-replica-0		Total params: 57,472
INFO	2017-10-17 15:29:07 +0800	master-replica-0		Trainable params: 57,472
INFO	2017-10-17 15:29:07 +0800	master-replica-0		Non-trainable params: 0
INFO	2017-10-17 15:29:07 +0800	master-replica-0		_________________________________________________________________
…
